tests/data/dense_weights.npz (npz, 206624 bytes, 3 tensors)

arr_1 f8 [32, 16]
00000000: 252a 6238 77a4 a1bf 47a6 07f9 933c ef3f
00000010: 6c8d 69a9 ddfc ddbf 4808 fbaf 07e1 c3bf
00000020: 93c3 db15 dd02 d8bf b27b f38a 3674 ebbf
00000030: 6f65 376d acbe b4bf 5597 cb5a 1488 d63f
00000040: b154 b8d8 3598 e7bf 3c5f 8dda 6a9e d5bf
00000050: 23f1 9413 9f9a f13f 90ec d8d7 6724 db3f
00000060: 1560 9ee4 40c0 c73f 494f 3d73 440d e53f
00000070: 12a7 a15b 50c5 dfbf 65a5 2b9e da3f d73f
00000080: 1916 64d2 1d33 b03f 9b04 a464 fca6 afbf
00000090: 3fb6 5c0e 1206 cf3f 02ad 7b5a 34c3 8abf
000000a0: 5592 952f 2e68 b03f fc0f c222 caa8 a8bf
000000b0: fd5e 51d0 d230 bdbf 5c2c 06d2 f930 b33f
000000c0: 00a6 88fa 1315 c03f 86eb 0da7 18c1 bfbf
000000d0: 841c ba71 b5c8 d2bf b9e9 fc8a 718f b6bf
000000e0: e223 c5d9 00ab a1bf 4266 0b51 9ee8 ebbe
000000f0: b09a 57fa 702b d8bf 0353 b554 25b9 d3bf
00000100: 8135 43fa 937a da3f 2069 4fa9 637d f3bf
00000110: 29f4 35f9 fc98 d93f e33a e085 0ac0 c63f
00000120: 7c00 4fa8 778b d43f a661 a84b fc76 b23f
00000130: 9ab6 d00c 5827 cb3f 8ed4 69dc ff14 d1bf
00000140: 3b84 a676 d8eb e0bf e38c de3e 6304 9cbf
00000150: 3f1e 5f0e 53c6 e6bf c1ff bb85 af94 c23f
00000160: e2e6 ffb9 f671 b63f 5e0a 4dc5 af30 e8bf
00000170: ba18 848a be09 c23f caca affe 3863 a7bf
00000180: 7923 a8f7 69dd d7bf ebdd 66f4 479d d93f
00000190: 1570 615f dd93 d0bf 8d5e 88cf b3a6 e9bf
000001a0: 4d10 c581 b471 dcbf 31d0 1e05 fc14 f0bf
000001b0: 0201 1021 032d d3bf 0856 68a0 658a a13f
000001c0: 3f71 c4f3 617a e73f cbd2 a6d9 9579 c3bf
000001d0: c62e 8a32 6150 febf be16 e5a7 4583 dfbf
000001e0: fabf 1a94 1492 d03f 9cdd a9e5 c9eb e8bf
000001f0: eb3b 9553 acc5 ebbf 9622 2690 395f e63f
00000200: 4322 1849 6d15 de3f 3c98 02f9 e38b 79bf
00000210: ba38 4dd5 a1cf d6bf 21de 066e 5d75 b33f
00000220: 0b49 bb8a 2dad e43f 916d 6ae7 6e52 e8bf
00000230: 4eba 680c fd0f e9bf 056c 23ba 3726 c9bf
00000240: 17ef b0a5 8533 d6bf 1ea9 0e73 5597 b4bf
00000250: 58d5 1d88 20a4 c8bf 74a4 e0ef d933 bebf
00000260: 5efa 8655 1e19 6f3f 6735 0c23 cc16 983f
00000270: c5de 963c 38df df3f 1f18 9872 1112 fcbf
00000280: 45c6 2f60 1c78 b5bf d80f f60e f4fc e3bf
00000290: 2dcd 1a8d ecd6 e03f e3ec d214 b2d4 c1bf
000002a0: 4ae5 274b a1b2 bdbf f05f fe15 069b c3bf
000002b0: d17c 6af2 9cb9 d4bf 075f 86ce 5e04 e5bf
000002c0: f45e 7768 0c28 a53f befb 7d4a 2906 6ebf
000002d0: 6b33 4bd5 946c d8bf 437f 8141 bad7 e6bf
000002e0: b26a ab65 315f edbf 0295 cb4b 8666 dabf
000002f0: 6f04 555c 905d da3f 9986 9c83 4046 e5bf
00000300: b87a f255 c73e e1bf 395e 8a89 dff6 d6bf
00000310: c301 c3f6 f11d c13f 5bef d1ef 3182 d73f
00000320: b982 ce63 ec32 f9bf 18c9 d839 4ec9 b0bf
00000330: 382b f516 d84a a1bf 69e7 b92e c9d8 d3bf
00000340: 06e9 620c c446 c33f 2f3b d598 fe8f d3bf
00000350: 351e abfb e8a5 eebf 0653 a9ac d802 e83f
00000360: 8f7e 00d5 0182 c0bf ee67 d178 fa36 e1bf
00000370: 76c3 6f65 1400 d1bf cf94 6e6f fb58 b4bf
00000380: ea55 badf ddb8 bb3f 93e3 27c9 8e1f e2bf
00000390: 06ab 5a11 8da0 d2bf 4990 cba8 3477 e93f
000003a0: b124 110b 40bd fcbf c347 ec88 cf45 d8bf
000003b0: 2e01 4b9c 47a8 f0bf 4d02 41c0 e491 ccbf
000003c0: 05e7 3052 0bc2 e2bf 542e 622c 96c6 d8bf
000003d0: 7f79 6b76 3c8a e8bf 8d19 6c62 565b e63f
000003e0: a8a1 d704 e07b f9bf 5f7f 4105 59e4 d93f
000003f0: d7c7 8a36 be18 e53f d594 50e0 f3e4 e2bf
00000400: 0d93 6b24 0059 e23f 79fd cfb4 94a3 edbf
00000410: 1411 6fb9 444f dabf 84a3 b3f3 662f e03f
00000420: 07c3 8e4f e676 d6bf 9303 4494 9b96 c7bf
00000430: 6adb 3026 9476 f4bf 55d5 fab9 b373 e0bf
00000440: 9857 e8be 8324 e9bf 5508 4b56 0be0 d2bf
00000450: 7cfe 8312 446a e9bf 012a 40f8 9bd5 c3bf
00000460: 4def 6971 4c1c eabf 2eb4 e5da c1ee ba3f
00000470: 65ad b21e 6c1b cebf 58a7 c850 4951 e7bf
00000480: d5a0 b787 afb3 d83f 048a 5481 a1df b63f
00000490: 4e84 a1e6 fd0a e13e ac5d ec8e 159f cebf
000004a0: 2047 ac2c d3f7 c2bf 9a4a d88d caae a0bf
000004b0: 5efb 07e1 4066 c7bf de88 6202 c128 78bf
000004c0: 9a3e 17a1 8cb1 803f d186 3ad5 55ed cfbf
000004d0: cb0f e3f7 b455 d03f e912 f2be c0bd a2bf
000004e0: 423d 234c d6a9 993f 0e6b 0eff 5964 d73f
000004f0: f4a1 407a 770b bbbf 4869 46e0 784b b13f
00000500: 15a5 799c d361 f0bf a6f1 66ab 4782 c3bf
00000510: 4f95 19ea ec89 e1bf e497 c0a5 eb40 f3bf
00000520: e0d6 e73e 4d23 a5bf 4cca b654 26f2 e1bf
00000530: 184b ceb1 3a80 ebbf 1f0d 8d7a a35d dc3f
00000540: 4481 8c32 75a4 f03f 672e d2b9 cbd7 bfbf
00000550: 34f8 ac24 c4d3 efbf cca0 db8f 03d0 e6bf
00000560: 1fce 21b1 5025 c6bf 609c 6e15 45f1 d1bf
00000570: 0e54 9d58 03be ec3f be13 b9ab f53e e6bf
00000580: 89db a6a7 75a9 d03f cdd8 29e2 18fd d0bf
00000590: f868 c8f2 3085 cc3f 87de 5cc6 fd9e d1bf
000005a0: edba e8ff 002b c4bf 77d9 4ecb 9f2a c1bf
000005b0: b36e 8401 f2b1 d3bf 4569 0ccd 8f03 d1bf
000005c0: 876e 1c17 2c58 b2bf 49c1 b85c a4a5 d13f
000005d0: 34cc ef78 ad29 b8bf 94fa 9255 ca20 c1bf
000005e0: 9ec7 5f37 5980 d1bf 7362 b716 528c babf
000005f0: 235e 116a 106d cabf 54dd 06ba b6be a1bf
00000600: a253 8e93 176d f1bf 1aef 3e94 73ab e1bf
00000610: 7d82 18e1 f8d4 eebf 352a f8a6 c43e d5bf
00000620: 94ca 6a4a 4914 a63f a246 aebd 5ff1 e2bf
00000630: a77c 07c7 a6c7 e2bf 4c6c 4705 4d1b e1bf
00000640: e8ac 2c69 061d df3f 452f 0f0f dc16 d1bf
00000650: 4dab 5626 ed9f f2bf 5f27 1f75 da79 d93f
00000660: 997a 4690 33a4 b23f ef02 05da a38c d03f
00000670: 1d5e 8653 1e3a ea3f b760 ac12 9b13 fbbf
00000680: 5daa c8f2 6069 dbbf 3209 36c0 defe e2bf
00000690: 03b4 98b5 13ee dc3f b505 d075 c1f0 d03f
000006a0: 4673 26c4 c256 d9bf d8bd 703f cf88 e6bf
000006b0: 9b41 c5e7 2d29 d7bf 6d67 ff09 8546 d63f
000006c0: 5027 714e 6a40 dfbf 9f5b 7996 945d 8abf
000006d0: e93a c240 436f c33f e8e9 9dff ed18 b43f
000006e0: d2e5 1165 7347 a93f 213b cca6 8b35 f8bf
000006f0: da93 d6bd 718e c93f f99e 5046 3589 733f
00000700: c74b 4df7 7c62 b6bf 7a99 53a1 338c e0bf
00000710: bb6b b32b 0c28 e23f 6f17 4e84 c2d1 c43f
00000720: 0d51 78fe b3fa e23f 3ff2 87df a040 e63f
00000730: 9479 5892 1957 e1bf 2eb6 f5af 2a26 febf
00000740: f91d 257d de77 a03f ef37 20cf bc66 863f
00000750: 4949 c1ef 0630 e23f 1a07 46e8 2af2 f2bf
00000760: bb8b d1c8 242e e0bf ce22 6f8a 84c9 9abf
00000770: 177f 3653 b399 e3bf 5464 2e5f 5553 c1bf
00000780: 314b c4b1 f4f2 9a3f 1f3f 26f0 88aa efbf
00000790: 25bf 8bb5 1ce7 e63f 92e8 ba14 5071 b6bf
000007a0: 96b2 8133 749b df3f fc13 0750 5f9e c83f
000007b0: 79a8 15a8 698b e5bf fef1 5135 898e b2bf
000007c0: 4942 439d aba7 99bf e4c3 c72a 5964 c5bf
000007d0: a686 88a1 2f40 db3f cb81 23da cf73 e3bf
000007e0: 2afd 35d1 616a eabf 23ae bd04 3363 d33f
000007f0: 8670 1e20 4cdb f1bf e9e5 82d3 52ba c63f
-0.03445789874338726 0.9761447776665556 -0.46855870765849406 -0.15530487149050232 -0.37517478117575215 -0.8579361642731469 -0.0810344473496991 0.352055634181274
-0.7373303635419203 -0.3377940305995144 1.1002493634142148 0.4240970237621662 0.18555461085338779 0.6578695536395368 -0.4964180846060212 0.3632723374017444
0.06327997576234913 -0.06182087639354813 0.2423727579238619 -0.01306763554699453 0.0640896669552345 -0.04816276239674264 -0.11402623735318325 0.0749660623315988
0.12564325078101035 -0.12404016569591478 -0.2935002909293376 -0.08812627452144896 -0.034507776816617555 -1.3307888850833054e-05 -0.3776514477489554 -0.30817540428442686
0.4137315696687765 -1.2181126226119616 0.3999626573275373 0.17773562943371876 0.32101241527926283 0.0721280750952987 0.21213818193193817 -0.2669067051386457
-0.5287897412673667 -0.027360487663497756 -0.7117095261282386 0.14516252546309086 0.08767644921308773 -0.7559431890043233 0.1409223724696796 -0.04567888363808022
-0.37288903413041613 0.4002246748673019 -0.25902494730485276 -0.8015994122860818 -0.4444400088580139 -1.0051231575025776 -0.29962232807885425 0.034259010153771696
0.7336892853814233 -0.15214799048921743 -1.8946239446840294 -0.4923872127149983 0.2589160391171387 -0.7787827954879734 -0.867880023239079 0.6991241279038884
0.4700577939807184 -0.006236925619452601 -0.35642286138762425 0.07600959716989354 0.6461398801423298 -0.7600626487577974 -0.7832017176022619 -0.1964788111571069
-0.34689465695167726 -0.08043417033210118 -0.1925087608939673 -0.11797868830093866 0.0037961571181022577 0.023524465216771342 0.49799924771239673 -1.7544111706097352
-0.08386399601274615 -0.6246280948839695 0.5262358432723083 -0.13930345551293674 -0.116006928299517 -0.15316845010670432 -0.3238289229720524 -0.656783488625451
0.04132117057059573 -0.0036650473084018633 -0.38162728146999453 -0.713833930913076 -0.9178702340826332 -0.41250760461691993 0.4119606877976087 -0.6648256845985144
-0.5389134100585897 -0.35881794387521243 0.13372635411179887 0.3673214761727103 -1.5749324701975367 -0.06557167923236695 -0.033774140169575195 -0.31010655940155246
0.1505971012573541 -0.3056637279996037 -0.9577526965521829 0.750347459058134 -0.128967503552293 -0.5379612312055977 -0.2656298628417554 -0.07948276014811316
0.10828959190470014 -0.5663522652458702 -0.29104925818198557 0.7958014771252319 -1.7962036545089115 -0.37926090594657696 -1.041083918113212 -0.2232023180713604
-0.5861870389264544 -0.3871207650597388 -0.7668745339286004 0.6986495897588597 -1.592742937960887 0.4045622397734316 0.6592703881526586 -0.5904483204982635
0.5733643256504323 -0.9262183696263683 -0.41108816250586355 0.5057863960074518 -0.35100705880454125 -0.18428368320021757 -1.2789498798208236 -0.5141237862032236
-0.7857073525108147 -0.29492457797107835 -0.7942219125397538 -0.1549563371812184 -0.8159544196237022 0.10520564645931138 -0.23521186350749726 -0.7286726548966085
0.38596714261667603 0.08934983642078725 8.12670551314696e-06 -0.23922986487080544 -0.1481880157594384 -0.03258355123047814 -0.1828080271515899 -0.005898240988388729
0.008151148477650683 -0.24943039809755033 0.25523113448820983 -0.036603949841298285 0.025061939618180824 0.3654999724182496 -0.10564371809653733 0.06755786395516339
-1.0238834488212138 -0.15241332883114217 -0.5480866024269434 -1.2033497309398564 -0.04128495591059589 -0.5608092932291782 -0.8594029877443488 0.44321524589413913
1.0401508307041505 -0.12438653265615472 -0.9946003643342523 -0.7128923234677358 -0.17301376961732814 -0.28035094349838197 0.8981949549439621 -0.6951855043376935
0.2603429925178991 -0.26544782720828836 0.2228146729910987 -0.2753290593277388 -0.157562375026337 -0.13411328723095625 -0.3077359213655015 -0.26584239029184104
-0.07165790142283344 0.27573498778203437 -0.09438595011288059 -0.1338131826250516 -0.27345877082472636 -0.10370362333868303 -0.20645337275594597 -0.03465815563998356
-1.0891338123230772 -0.5521791358400805 -0.9634975811387246 -0.33195606523136983 0.04312352212345619 -0.5919645981504866 -0.586871517876621 -0.5345826247315784
0.48614654799412316 -0.2670202395499824 -1.1640445230102217 0.3980623382345722 0.07281801483484641 0.2585839871499464 0.8195945388169467 -1.6922865609576954
-0.4283068056999236 -0.5936120752451528 0.45203106626541983 0.2646945620072885 -0.39592045932095166 -0.7042003859586954 -0.36188838609543844 0.34805417991957804
-0.48830659542419586 -0.012873802988151271 0.15183296834989982 0.07850539675374757 0.04937325104487979 -1.5130726352251218 0.19965955514376682 0.004769523719950313
-0.08744030988354644 -0.5171144629392039 0.5673886159450982 0.16265136203963546 0.5931034059636048 0.6953892103043201 -0.5418823107063866 -1.8843180535726662
0.03216452863358294 0.01093814379785482 0.5683626826014826 -1.184122950857676 -0.5056327745663717 -0.02615935416159481 -0.6125122666598796 -0.1353556360961955
0.026317427969000554 -0.9895672502916318 0.7157119317834925 -0.08766651636224967 0.4938631537432142 0.19233313949203523 -0.6732681544210798 -0.07248742629776214
-0.025053674195819196 -0.16712488736041486 0.4257926061128309 -0.607887197544238 -0.825486096015003 0.3029296442316271 -1.11603939577529 0.17756114318562702

arr_0 f8 [784, 32]
00000000: 24f6 59b1 548c a1bf 8836 f53d 2a89 b0bf
00000010: 2833 a01b 4fe0 843f 4014 f5b9 d3ec 90bf
00000020: dbbd 1d80 b167 a1bf 2096 fa3f 43c2 743f
00000030: 9036 d691 4368 9e3f 780a 661a f07b aa3f
00000040: e8af 659f 8a04 a0bf dcba 7701 49e0 b1bf
00000050: e927 0e30 df3f a5bf 64ab f32d 42c7 9fbf
00000060: 2c61 240e e51d 983f 5853 a8f6 c7e8 93bf
00000070: a0e5 a79a 0a6a 993f a09d a29d 7198 a83f
00000080: b894 27ec 0c93 aa3f 2058 de2c 3b11 94bf
00000090: f405 f77f 874f b13f 3fff 5018 35af b2bf
000000a0: d8fa 22a5 129e 883f 28aa c96b da0f 93bf
000000b0: 93a6 cac1 93ab a9bf 287b a7b7 9fb0 aa3f
000000c0: 5fee 42a5 4f4c a0bf 2042 4769 86d3 64bf
000000d0: c89d 1775 d392 833f 86b6 cc86 5073 a13f
000000e0: b0b3 c250 6806 8abf 3a7a 8099 33e3 a03f
000000f0: a5cd 59f5 41c5 a5bf 5752 1224 67c2 a8bf
00000100: d095 a3cc 5bab 8e3f 005a 9594 8e4f 743f
00000110: 9e01 85a4 a17e b0bf 8a7b a40c 4ce4 b13f
00000120: 4aac c9fd 3617 a5bf e03c 0e9b eeb3 8fbf
00000130: 3cd0 4736 104b b13f 859c 82b0 defd b1bf
00000140: ba0e 028a b789 adbf 68b8 c801 16d1 833f
00000150: 57b8 a375 9c06 b4bf 5490 69cb cf80 a73f
00000160: ac77 91ed f0d3 b33f 9224 81b5 2036 b1bf
00000170: 7803 d41c fded ae3f 00de 9e3e f971 5c3f
00000180: 445c 69c3 cd72 b5bf 1893 9760 e80e ae3f
00000190: f808 a65a b7a9 9b3f 8af7 b917 2de3 b13f
000001a0: 327c 7607 c438 b43f ecb4 231d 4bf0 a33f
000001b0: f42d 7302 fc86 b13f 882f d36b 573f a63f
000001c0: b085 b069 12cf 703f 1009 a402 9e29 b13f
000001d0: 6006 c37c 002f 9bbf c4bb c53b 0148 b23f
000001e0: 00fe 92a2 e0af 7ebf c393 9e50 6bbc a6bf
000001f0: 00fa 77ca 2900 643f d8c2 1cd0 e937 a4bf
00000200: 6c26 9bc6 6ac5 a63f 8867 e024 f666 9bbf
00000210: 6895 9e9d c688 9b3f 2625 35ec 0349 b03f
00000220: 60c0 5d41 8146 a53f ca19 0916 f863 b1bf
00000230: 6811 6de1 9155 8abf 947d 5b7e 7ddf b43f
00000240: 28de e3a0 fb54 97bf c09e 95d0 2590 95bf
00000250: 2408 8e89 cd39 acbf d04c 9d15 d511 94bf
00000260: 46cb 251e 19d6 99bf a049 a5cc 0545 7f3f
00000270: bc52 441c 437f a3bf 2047 1c21 f1fa a43f
00000280: 1c65 6449 eead 99bf 13d4 f79c 403e aabf
00000290: 8ce3 2503 f936 953f 200c a164 9da2 a33f
000002a0: 70b1 1c7a f497 b03f 072f a3dc d583 b3bf
000002b0: 004a fd33 e49d 863f a09d 1bc2 7ec0 b43f
000002c0: 1227 0f5b 8e3a b33f 3e34 0a21 505d b53f
000002d0: 94e8 f423 32e0 af3f cb2e a6aa 41b0 b0bf
000002e0: b0e4 843b 93a6 a83f 1c54 f081 ea0d ac3f
000002f0: 3851 ac4c 87dc b33f acb1 8916 1506 943f
00000300: f8e6 d695 aa41 a03f be85 01eb aea6 b4bf
00000310: 4033 d618 3ee0 b03f 10f3 8f24 5bb4 af3f
00000320: 38f9 3f2d eaaa 9fbf 3ff0 db0d 0ee3 aabf
00000330: 4058 20b2 ba53 9e3f 6065 60c4 d740 6dbf
00000340: 7caf d061 0a3a ac3f 621d a708 2665 9ebf
00000350: 50c8 1ee8 99dc b53f e16c a9c4 99a5 a1bf
00000360: b893 5f24 db44 813f f033 4a84 8cbf b3bf
00000370: dc6c 00ef 506f b23f 04a0 1352 73c7 9a3f
00000380: 80ba ee10 f401 a2bf d008 7247 59d6 853f
00000390: 2441 495a 633c a6bf 1085 7e5c d8d0 99bf
000003a0: 2401 057f d33e 9d3f 362f b76f 4e42 b43f
000003b0: 903e 829b c1cf 76bf e897 8338 69d8 ab3f
000003c0: e42c b3c9 7681 a5bf d284 7ebb ca2f b3bf
000003d0: c86a 6bd0 f2e9 8c3f 983b 7318 28e6 aebf
000003e0: b0c0 1f5f 876a b53f 430c 0b2d 1991 b3bf
000003f0: 6a7d ba3c 7f85 b23f c8bb 9a8f d955 8bbf
00000400: 7c2c dd77 a33d 9d3f e8d0 1595 7055 983f
00000410: 6054 c12c b4eb 793f d89a 202b af63 80bf
00000420: 38e3 1c28 a0b7 8b3f f41c b7e6 7ea6 a03f
00000430: f254 773b 9ac1 b5bf f8bd 6dae 3553 93bf
00000440: 6645 eab1 3ec4 b03f 7018 dfe1 c8cc aebf
00000450: 883b 958d f489 ae3f 9d27 05d6 2929 a0bf
00000460: ea90 c307 a911 a33f e8c3 9000 cc7b 853f
00000470: 386b f3ed 5643 a53f 18ba a14e 4aac a73f
00000480: 0be0 941b f64c adbf 4083 9302 ab04 b03f
00000490: e896 68fa 91d4 adbf 721d fa7a 2e1b b23f
000004a0: 60e3 7176 08b2 723f 804f 4403 fbfd 9abf
000004b0: 92e1 c925 2f4d acbf a6bf 3a23 78e5 b0bf
000004c0: d8b2 f472 e8b4 b4bf 80ba 3a86 c52b 643f
000004d0: 62c0 3ac7 7f96 b23f ec33 a790 c755 ad3f
000004e0: d4a8 fd2d b5da 9c3f 45b9 361c 2d11 b3bf
000004f0: d828 3aac d759 96bf fba1 d9af 899e b5bf
00000500: c048 ac6e 0868 963f 90a9 153c a449 75bf
00000510: 906e 66ad 3cd3 a3bf f0d0 c497 9772 92bf
00000520: fc0e 6dd7 7368 a13f 982e f523 e0f5 a83f
00000530: 3747 5c8c f013 b1bf 1470 c6cc fc82 9e3f
00000540: 836a 13db 4db3 a5bf b156 e6ab 6af2 a1bf
00000550: 807e be18 a460 9c3f fca5 b109 77a1 abbf
00000560: a008 ea63 1f0e 8fbf a091 e0a8 4b67 ac3f
00000570: 34c9 cb24 cce6 9dbf b9d9 689e 267d a3bf
00000580: c55d b44a a2b6 b2bf d454 5db6 1f40 a0bf
00000590: d45c 1414 3359 b03f 663f afac 0409 b1bf
000005a0: 0865 871c 0ef0 86bf c412 9679 a5a9 b13f
000005b0: 90ed 06a8 7a3c 79bf 2a8c e745 e706 b03f
000005c0: 9cdf 3ca6 510e 943f 40e9 cf2a 8b76 77bf
000005d0: 88bc 4c9f 795b ac3f 003a 0aee bf37 a33f
000005e0: 8ec4 1aec 521d a33f aa3a f035 62fe b3bf
000005f0: 643a 10c3 d110 97bf acfc 987b 5b81 a23f
00000600: f4e9 2d78 c010 95bf 9476 eec3 afcf b1bf
00000610: 03c3 c827 26e8 a9bf 5c80 15be af67 a73f
00000620: 404f db32 2591 7c3f 6c9f 16fa f806 a1bf
00000630: 8099 da64 81a5 66bf 00b2 2e8d 99b4 873f
00000640: f55b 597a 2da3 b2bf 5aa6 454a 56a9 acbf
00000650: 843b 6c76 8eb7 b03f 569e 6e45 61a9 aebf
00000660: 7039 be24 d7c0 96bf 90e6 0bdf 0faf aa3f
00000670: 1226 6182 67fb b33f c8ad bf52 574e 87bf
00000680: 140b 3a6f 1127 b03f 7437 e6ec 108b aa3f
00000690: 685b e9e4 62bc 80bf b055 1010 48e8 9e3f
000006a0: 1b9f aa59 dc21 b4bf c064 d6be e4a9 693f
000006b0: 6052 9680 7119 99bf 949d 8eb7 4ab0 a43f
000006c0: 46d4 87eb 3d26 b4bf 7837 8ea0 b954 a33f
000006d0: 7065 26dd 527c a93f 889e 1d64 7b3c 90bf
000006e0: d7c0 5dba 15e8 a5bf c86d 3883 597d b53f
000006f0: 34bc 15a8 f75c 9a3f d44b b292 dd87 95bf
00000700: 9446 f2bc b2be b5bf 8043 e00d 33c0 45bf
00000710: ac66 afcb 3399 993f 6f4c fe40 61c9 b2bf
00000720: b8db 9334 03b9 b53f 60aa 49f0 52a2 78bf
00000730: f83d 54dd 75a5 88bf b144 d954 614d b1bf
00000740: c068 a906 834c b33f b8f2 c5e2 30c3 88bf
00000750: c43c ea24 271e aa3f b37a 64a7 fe0f a4bf
00000760: 60f0 c58a 2fbc 7e3f cc42 9b5e b1c9 97bf
00000770: 2a4a 8ae2 0cb0 b03f cc6c a238 4799 95bf
00000780: 5c61 90fe 6af9 acbf 3051 5f52 04f2 7c3f
00000790: 0841 b272 badd 9a3f ec4f bdfe c3f6 a03f
000007a0: e8d7 9643 02e2 973f 0a5c 2eb5 2f13 a7bf
000007b0: 9846 ab31 988f 943f 3cdc 9fa5 a915 a0bf
000007c0: c00f 40fc f3ce 98bf 270d 970a 9a46 b3bf
000007d0: 3049 058f cfa3 8f3f c9a9 f65b 1f7e b5bf
000007e0: f893 6181 94c0 81bf 280b f6a5 42fd 84bf
000007f0: 00c9 5fe4 a1da 473f 10da bfcb 9481 993f
-0.03427376427587728 -0.06459297192233227 0.010193460493633191 -0.016528423523841207 -0.03399424256246749 0.005068075842847658 0.029694610382242248 0.05172682115791799
-0.03128464885489263 -0.06982857023079297 -0.04150292836773401 -0.03103354840724694 0.023551539409795527 -0.019442676954059962 0.02481857842392332 0.048038053982334405
0.05190315611597768 -0.01959698163371837 0.06761977075714026 -0.07298595279371244 0.012020250000543894 -0.01861516268619759 -0.050137154966546714 0.052128783386925115
-0.03183220760680849 -0.0025422692508316885 0.009557392130729606 0.03408290524963058 -0.012707533802620435 0.03298341034700454 -0.04252058143620311 -0.048358176377551736
0.014975278074824155 0.0049586839243915826 -0.06443224207487794 0.06988978680281668 -0.04119273994441437 -0.015479911906167876 0.06755162549217258 -0.0702799969609363
-0.057691321942028265 0.009676143578954036 -0.07822587844904781 0.045904630261049434 0.07745271492009803 -0.06723217421780905 0.06040945984751195 0.0017361578015718804
-0.0837830164031042 0.05870748690703048 0.027014603526830577 0.06987268285044315 0.07899117643545209 0.03894266825396095 0.06846594867527483 0.04345200720999204
0.004103729176706691 0.06704127850028763 -0.026546485533577857 0.07141120633399028 -0.007491948586163755 -0.04440627440570879 0.0024414840916044955 -0.03948908486780106
0.04447492288961716 -0.026759954453246887 0.026888945932701885 0.06361412541186393 0.04155353472640466 -0.06793165719964303 -0.012858524028737064 0.08153518996140569
-0.02278512162680904 -0.02105769239042732 -0.0551285009778584 -0.019599275058976684 -0.025230781998696793 0.007634184507269742 -0.03808030815176752 0.040977034847072824
-0.025077555875303678 -0.05125619808305983 0.02071751672471893 0.03835002759344541 0.06481864911319746 -0.07623039852768097 0.011043341480818647 0.08106224287950292
0.0751122448265529 0.08345509344708632 0.062257353677027144 -0.06518946090926218 0.04814586736251536 0.05479367099921026 0.07758374807264523 0.01955445241985536
0.031750994482946326 -0.08066838490915182 0.06592167002072546 0.0619228822833745 -0.030925425540766244 -0.052513541404522794 0.029616276857346913 -0.003570958538159516
0.055130314293221766 -0.02968272617161228 0.08539735714910646 -0.034466557747430356 0.008432113692785723 -0.07714155416233814 0.07201104960443011 0.026151468166887085
-0.03517115313240016 0.010662744038431177 -0.043429474612482616 -0.02521074356593994 0.02855997526899147 0.07913675525122418 -0.005569225577474093 0.05438546004170047
-0.0420033570495322 -0.0749479968785807 0.014118096337758415 -0.06034970568145254 0.08365675041545972 -0.07643277501760885 0.07234950287464917 -0.013347339339217515
0.028555444899478463 0.023763426875533705 0.006328300292882977 -0.008002632621424352 0.01353383181013755 0.032520261443602566 -0.08498538924989754 -0.018872107287675605
0.06549445956831831 -0.06015613324375202 0.05964626529986733 -0.03156405198622212 0.037244112203355176 0.010490030066735614 0.04152938513444443 0.046236345385171684
-0.05722779356659665 0.0625712281503299 -0.05826240712876346 0.07072725775116398 0.004564316804242491 -0.026359483789817784 -0.05527636848723029 -0.06600142345518964
-0.08088543707408336 0.002462278165544618 0.07260893453599374 0.057295071037152784 0.028178053791102567 -0.07448083819210634 -0.02182709683123893 -0.08445034545150769
0.02188122916693014 -0.00519718317205288 -0.038720985571868316 -0.018015259397729133 0.03400003437721286 0.048750881566403226 -0.06671050478715022 0.02979655265663446
-0.042383606903702485 -0.035052617534501514 0.027712406168233006 -0.05396625512441841 -0.015163655506743645 0.05547558247079398 -0.029200734849788648 -0.03806420024595831
-0.07309927295533843 -0.03173922635202478 0.0638610767385786 -0.06654385772639912 -0.0112000563103032 0.0689948484269492 -0.006161193014516356 0.06260533768322377
0.01958587243208819 -0.005728286382686243 0.05538539952828453 0.0375347116542919 0.037333098718030575 -0.07810033623557425 -0.022525098353123232 0.03614316829452355
-0.020571715674558136 -0.06957529576762972 -0.050599281650994164 0.04571294017182545 0.0069743588516820165 -0.03325632145725774 -0.0027644660211365024 0.011574935551686316
-0.07280239331281264 -0.055979439321913474 0.06530084983044843 -0.05988601658401353 -0.022220002763384483 0.052116867043833115 0.07805487568943928 -0.011379892552176765
0.06309613194939018 0.0518422402557083 -0.008171818362070218 0.030182958584267616 -0.07864167393801973 0.003132769363855731 -0.02451112124761534 0.04040750017821462
-0.07870852470644349 0.03775577626139087 0.0497766394575575 -0.015855720506265075 -0.04278629207590406 0.08394393399833355 0.02574526751908142 -0.021026098326341572
-0.08494107354115449 -0.0006637810981847542 0.02499848299689826 -0.07338531338455011 0.08485431703216662 -0.006014179209709342 -0.012034340683867648 -0.06758697816373417
0.07538622772827619 -0.012091047211236869 0.05101129842398103 -0.03918453019490666 0.007503686629544232 -0.02323033466274431 0.06518631487623652 -0.021092522460645566
-0.05659040791960265 0.007066742784406707 0.0262364513878888 0.033132672163134064 0.023323092818564733 -0.045068255297501095 0.020079019576604823 -0.031415273158863916
-0.02422696330178531 -0.07529604681535727 0.015449163009780692 -0.0839557265777905 -0.008668098638915808 -0.010248680772524901 0.0007279673088745053 0.02490837567889953

arr_2 f8 [16, 10]
00000000: 7f70 8e55 9409 c2bf e0c6 00c6 5730 d03f
00000010: e16f c37f bc55 afbf 42f0 3bac edaf 90bf
00000020: 4fad 59fc abc3 acbf b436 8d31 f374 c7bf
00000030: 4e04 0e1b a516 e2bf b943 d6a4 3a6e d73f
00000040: 234d 56bb e4d5 56bf ff7d bb43 d927 d13f
00000050: 03fa 5663 dad4 c43f 7cf4 44f9 b9cd c8bf
00000060: 5057 1182 6e99 d2bf 9bbb 29e2 1755 a7bf
00000070: b801 4fad aa30 a5bf d0ea 3f67 dd4d c33f
00000080: ca77 d734 d24c e03f 55c9 c820 d909 c3bf
00000090: c902 b66a 373e c43f 1049 b21d 806b e0bf
000000a0: 929a f5dc e4cf 7bbf 8913 b613 f84d 713f
000000b0: fef6 8a0a bdd3 aa3f 4297 8f52 f3c7 a0bf
000000c0: 3d6c 62f1 cdc9 c0bf 7dd8 29c8 06ea b8bf
000000d0: 7d88 a84f 9964 c9bf 4237 934b b948 d0bf
000000e0: 9feb e2c8 390f d63f 5a08 dda2 d010 a73f
000000f0: 9ba6 ca83 734d b03f 7427 4cf8 f1ec d2bf
00000100: 8aa0 93bf da8c dd3f 6989 d5ad 3bab c53f
00000110: ac76 3f07 84e2 843f 23e3 3070 e7ed a5bf
00000120: a871 9fdc 99bf bbbf 2b38 9cde 43ae d03f
00000130: dabd ebc1 3de7 c13f 1c5a 7250 b353 a2bf
00000140: 8488 e9b1 c1f1 ccbf 8b2b ef77 6bfc c1bf
00000150: b3a3 e5c5 5ba1 b4bf 959e cf1b b91a 9f3f
00000160: 1e65 d6a0 947c cb3f 84ed 71f0 f278 a3bf
00000170: 6d18 c668 4521 dfbf 3bc5 4c16 a843 b7bf
00000180: 80ee bb1e 8598 b8bf cf23 1ff4 6006 da3f
00000190: 2732 2e29 5a8d e4bf 9a3d 8c28 23f5 debf
000001a0: 3487 c229 2a0d d9bf 630a 34f9 4ba7 c6bf
000001b0: 1d73 76e9 6dc8 b73f 291e 6aa0 3d5d d9bf
000001c0: 0904 a499 3da8 e1bf 4a18 3101 b0c5 a23f
000001d0: 68fd 1ba0 2bf7 ad3f 1ce8 6d44 0d8f c13f
000001e0: c4a6 c61b 1c2f e03f 3c65 0677 b1d2 e3bf
000001f0: 194b a140 c12b 99bf 6510 73bc db68 7e3f
00000200: 203d 63d1 f6f9 a2bf 671b f1c1 dada c0bf
00000210: 3d32 6976 ccf6 71bf d480 e50e 942a a03f
00000220: 6a72 5387 58b3 c13f 29ed 2284 5556 bf3f
00000230: 28e6 82aa f223 e7bf 6981 c637 d122 d13f
00000240: ac33 cfc4 b629 cfbf 0dcc 5d5f 147f d8bf
00000250: a871 902b cbaa cdbf 5276 8c1c 61c3 cebf
00000260: c819 8dae b85a 8ebf 4216 3bca 9b8f c9bf
00000270: 2336 359b 11bc a03f a480 7522 832d cbbf
00000280: f122 f21d 1e0f 973f 7cc3 1b1f 3524 a7bf
00000290: 3c82 1c43 acad ccbf 8303 c6f5 ce06 c43f
000002a0: 0669 6780 8ba6 cebf 210e 14bf 276d e03f
000002b0: a0ff 1072 bd21 bc3f 4448 e766 2c1e dcbf
000002c0: 7bdc c1dc ba27 bb3f 2c5b f834 3f67 b53f
000002d0: e27f 5116 01f8 d33f 04e1 b99b 7fd4 d83f
000002e0: 7503 88c1 49fa cbbf 7701 08f8 a42e e1bf
000002f0: 455a d471 ac8f c4bf 1362 3261 2af9 c23f
00000300: c528 d168 4475 d53f 108c dd9e 0f43 cc3f
00000310: e5a0 aa77 f2fd d5bf 5705 b891 7599 bc3f
00000320: 9d2e a43a 3d8e b0bf 0a0f 1978 843b b73f
00000330: df08 e9de dfc6 b33f af89 6928 43c0 debf
00000340: ca70 05af 0951 d63f ce39 b00f 1efc c3bf
00000350: f60d e2c7 7ae5 9cbf 78ea fbd9 926d c4bf
00000360: 76db a695 2c37 a63f e512 e752 71a4 c1bf
00000370: 8ab8 83c4 2968 bdbf 955a 1491 4c9a d33f
00000380: dbda d942 14d9 d73f 57f5 6e51 fd63 a33f
00000390: 8bff 6a96 a833 b43f 88a6 dae4 94a6 c9bf
000003a0: 8ec9 8a3c cf8c 9bbf c739 a81b 243c b2bf
000003b0: 7b0b b294 3209 d2bf da7d e8fa e873 e6bf
000003c0: 91ec 92c5 c3fb cb3f e2a7 4b59 c21c e8bf
000003d0: e4ab 641c 0876 94bf 494c 9445 ce60 e9bf
000003e0: 4a95 edf4 cafd da3f ea34 2864 a4a6 acbf
000003f0: 0c75 0bf7 3f85 cf3f 5e11 ee17 448e b53f
00000400: 3e12 b725 3b2c ddbf adbb 65b9 50b6 dd3f
00000410: 6dbb e334 3774 babf c31c 908c 8d19 c1bf
00000420: d816 fe2d ec3f c13f df34 3e56 469e b9bf
00000430: 63c1 4038 4b2c cc3f 006e 65b1 a366 d23f
00000440: 5ee2 64ae f4c0 a43f ed8c 53ca e790 db3f
00000450: 05d2 06e5 84d1 953f b113 f544 1af5 c63f
00000460: b04f e17e 20ae c2bf 4c35 3596 4773 b13f
00000470: 5a9f 9d6e 5b34 ca3f 47e5 de06 f5de dd3f
00000480: a492 6919 fc75 c2bf cb73 ee06 86ec b73f
00000490: 40bc 3d42 0e62 eabf 1ae1 1993 21c8 d13f
000004a0: 5b47 e779 cafd c33f 1697 e6c6 5304 c53f
000004b0: 3daa c3d3 1391 ca3f 7fa6 a7f6 0bf6 cb3f
000004c0: 8c0a 4967 5791 67bf 844b 1300 ef8a c5bf
000004d0: da48 a202 ad19 bbbf ee9f 32ea ad4c 8c3f
000004e0: 6ef1 856e 300c e03f 5af4 1743 fd6c b9bf
000004f0: 243a b045 f0f1 b83f 8fea c8aa 8223 e8bf
-0.14091734101828376 0.2529506143210778 -0.06120099124538548 -0.016296113622033433 -0.05618035750816352 -0.1832565299941301 -0.5652642753995083 0.36610284898148
-0.0013937696179240975 0.2680571710061201 0.16274576044629904 -0.19377827330928088 -0.2906147260849723 -0.045571085317411796 -0.04138692250808468 0.1508137468479931
0.5093775779785059 -0.14873804188534714 0.1581486960458476 -0.5131226139076563 -0.006790060040066452 0.004224747706193529 0.05239668611237212 -0.03277550108741291
-0.1311585835108832 -0.09732096087268079 -0.198382533927603 -0.25443870907189503 0.3446793042928053 0.045050163155352776 0.06368181197708582 -0.29571198699760903
0.4617220755449202 0.1692881201552823 0.010197669478596204 -0.0428306889011252 -0.10839234958934318 0.26063629855423426 0.13986942261497753 -0.03579483372702816
-0.2261278265678507 -0.14051574093022298 -0.08058713513822972 0.030375377962541156 0.2147393975581417 -0.038032142497253424 -0.4864057086164227 -0.09087610763960623
-0.09607727051109727 0.40663932647708817 -0.6422549061113089 -0.483711995694614 -0.39142850950348707 -0.1769804922879131 0.09290205907604983 -0.3963159624622415
-0.55178718574473 0.03666448607013757 0.05852638558826123 0.13717809525752578 0.5057507078647281 -0.6194693875033077 -0.024580974168496448 0.00742421945978231
-0.03706332498551945 -0.13167890996757167 -0.004385756189162535 0.03157484704820637 0.13828569991791834 0.12241110301959125 -0.7231381731318764 0.26775007674043266
-0.2434605084403335 -0.3827563220322084 -0.2317747080532062 -0.2403375043294767 -0.014821474863890752 -0.19969508528281393 0.03268485087992825 -0.21232642347877573
0.02251860673689782 -0.04519811634771195 -0.22405007626459106 0.1564577770295977 -0.23945754785274448 0.5133246166228141 0.1098898318750785 -0.43934164094128314
0.10607498063642311 0.08360667269913041 0.31201197795416935 0.3879698773157687 -0.21857568692942278 -0.5369438976631916 -0.16063457067567036 0.14822892900407733
0.3352824233630936 0.22079653985119352 -0.3436247032755218 0.11171660239781055 -0.06467039758370637 0.09075191433026589 0.07725333397050659 -0.48048476168164717
0.3486961564247052 -0.1561315132716587 -0.028219145250217147 -0.1595939220786311 0.04338969542316466 -0.1378308920667656 -0.11487065360754137 0.30629266899033186
0.3726244595376735 0.037872234526256925 0.07891324684442062 -0.2003961675121 -0.026904333181570865 -0.07123017955038967 -0.2818113758186695 -0.7016491795110895
0.21862074992336436 -0.753510641484578 -0.019981505139337843 -0.793067108056115 0.4217402831912592 -0.05595887873287515 0.24625396311504522 0.08420205673434597
-0.4558246486961116 0.4642526445886073 -0.10333581010102728 -0.13359231341767072 0.13476326223115254 -0.10007133107702114 0.22010174032903781 0.2875146133789883
0.04053463581880544 0.43071932562288745 0.02130706451289834 0.17935493819291318 -0.14593893237417666 0.06816527764495567 0.20472281361730432 0.46673322363820485
-0.1442256092151598 0.09345281285500488 -0.8244696897289785 0.2778400360616772 0.15618258430782359 0.1641945573039087 0.20755241241507064 0.218446250378566
-0.002876921377067026 -0.16830241683655 -0.10586053194336689 0.01381812926258871 0.5014879377991244 -0.09931929481531779 0.09744168950440063 -0.7543347678795999
